model_cluster_20_v7.pkl (torch, 7071 bytes, 4 tensors)

weight f4 [30, 20]
000000 8f f1 bc bd 3f c5 ab bd cf d5 b1 bd 97 9b 25 be
       -0.09225761 -0.08387231 -0.08683359 -0.16172634
000010 98 30 03 be 38 b1 75 be 61 32 0d be f2 3e 33 bd
       -0.12811506 -0.23993385 -0.1378875 -0.0437612
000020 5e fc 10 be cb b8 f7 3c 7f 4c 0d be 8d 01 a5 bc
       -0.1415877 0.030239483 -0.13798712 -0.020142341
000030 54 12 00 be 0c c3 cb bd 14 89 44 be f3 58 02 be
       -0.12506992 -0.099493116 -0.19192916 -0.12729244
000040 64 4c 41 be b4 33 82 be bb a9 19 bd 00 b0 45 be
       -0.18876797 -0.2543007 -0.037515383 -0.1930542
000050 c4 18 ca 3c 24 57 2f be 27 e0 d8 3d 1b 23 ff 3d
       0.024670012 -0.17123085 0.10589629 0.12457868
000060 0e de 08 be eb 91 1c 3d b7 41 9b bd 94 2e 00 3c
       -0.13365957 0.038225096 -0.075808935 0.007823605
000070 70 64 b7 3d f5 1b c9 3c 07 52 53 bd de db 0e be
       0.08954704 0.024549464 -0.0515919 -0.1395106
000080 ed 16 60 3d 13 7b 84 ba 2d 99 dc bd 94 c7 10 be
       0.054709364 -0.001010748 -0.107714035 -0.14138633
000090 d3 a0 79 be 00 4f 8f bc 90 c5 75 bd be 90 be bd
       -0.24377756 -0.017493725 -0.060002863 -0.09304951
0000a0 3b e0 5e bd 33 f9 7f be ec 1b 7e 3d c4 58 74 bd
       -0.05441306 -0.24997406 0.062038347 -0.059654966
0000b0 69 c7 c7 bd de 2c c3 3b 75 a8 a1 3e 2d c2 61 3d
       -0.09754831 0.0059562763 0.31573835 0.05511682
0000c0 84 9a 26 bd 1a 50 3d be e7 54 8e bd 36 3f e8 bd
       -0.0406747 -0.18487588 -0.069497876 -0.113401815
0000d0 20 ec d2 3c ef 21 ab bc 9d 7c 90 3c 9e 41 09 bd
       0.025747359 -0.020890204 0.017637545 -0.033509843
0000e0 2a de 82 be 93 44 56 be 9a f4 94 bd f8 47 f5 bd
       -0.25560123 -0.20924596 -0.072732165 -0.119766176
0000f0 da 57 89 bd 08 04 70 3d 40 af ae bd 25 74 5b bd
       -0.067062095 0.058597594 -0.0852952 -0.05357756
000100 7b 2e c2 bc 1d f6 c4 3d d3 ec f1 3c f0 15 85 bd
       -0.023703804 0.09617255 0.029531872 -0.06498325
000110 2b 0e 09 bd 9b bf 35 be d0 5a 8a bc 9b 60 a5 bc
       -0.033460777 -0.17748873 -0.016889006 -0.020187667
000120 b8 3a f4 bd 01 76 9c 3d 4b ee 4d 3e 86 d9 16 3d
       -0.11925262 0.07639695 0.20110433 0.03682854
000130 df ca 09 be 63 c6 e5 bd 07 94 77 be cc e0 07 bd
       -0.13456295 -0.1121948 -0.24177562 -0.033173367
000140 8f f6 4f bd e0 00 16 bd 22 7c 3d bd 73 2d 77 be
       -0.050772246 -0.03662193 -0.04626096 -0.24138431
000150 8a 9b 56 bd 3f 0b 95 bc f3 40 6f 3c 82 95 b8 bc
       -0.052394427 -0.01819384 0.014602887 -0.022532228
000160 d0 3e a1 3d e5 21 ac bd 68 8b 52 3d 10 e7 5a bc
       0.07873309 -0.08404902 0.05140248 -0.013360754
000170 cb 04 64 be c4 3c 34 3d ab 75 82 bd af 81 c4 3d
       -0.22267453 0.044003263 -0.063701 0.09595048
000180 c0 bf e8 3d 8f 06 2c bd 88 27 d9 bc 9e 21 29 ba
       0.113646984 -0.041998442 -0.026508108 -0.0006451848
000190 e1 35 35 be ca c4 5e bd 49 2f 9f bd 4c e8 3e bd
       -0.17696334 -0.05438689 -0.07772691 -0.046608254
0001a0 4f 3d 3e be 04 7c 45 be 37 4e 95 be 59 a5 9e 3c
       -0.18578075 -0.1928559 -0.29161236 0.019365953
0001b0 88 f1 12 bd 66 47 b6 bc aa 5c 95 3c a5 c1 31 bd
       -0.035874873 -0.022250842 0.018232662 -0.043397564
0001c0 54 72 67 3d 0c 86 84 bd 93 f1 c1 bc df e7 b2 bd
       0.056505516 -0.0647088 -0.023674762 -0.08735632
0001d0 76 fd 8a 3d 26 a5 36 be b7 1d bc 3c 22 c7 01 3e
       0.06786625 -0.17836437 0.022963388 0.1267362
0001e0 23 8b 96 bd fd a1 d1 3a 90 16 15 3d 03 31 42 3c
       -0.07350757 0.0015993711 0.03639847 0.011852506
0001f0 4d 6e ab bc 31 a0 17 be 28 cf e6 3d 91 59 ec bd
       -0.020926619 -0.14807202 0.11269981 -0.11540521
000200 e3 a1 6a bd 2c 85 cc 3d 30 a5 03 be 6e d8 0a be
       -0.057283293 0.09986338 -0.12855983 -0.13559124
000210 80 8e 37 be fb 43 6c bd 19 f3 1a 3e e4 6c 23 bc
       -0.17925453 -0.05768202 0.15131797 -0.009974692
000220 76 7f 8f 3c f3 7e db 3c 44 97 22 3d b8 71 a0 be
       0.017516833 0.026793933 0.03969504 -0.3133676
000230 9a 6e 4e bd bd a0 07 3e d9 99 24 bd b0 b3 ce bc
       -0.050398447 0.1324491 -0.040185783 -0.025232166
000240 f7 49 b3 bd 57 e6 d6 bc 62 b1 b3 bd 7e 93 8f bc
       -0.08754342 -0.026232881 -0.087740675 -0.017526384
000250 b8 0f dd 3c c0 97 6b 3b 10 96 07 3e bc df 9a 3d
       0.026985034 0.0035948604 0.13240838 0.07562205
000260 43 0e 0a 3d 0d 64 f6 bd 34 bd 29 bc 64 37 c0 3c
       0.033705007 -0.12030802 -0.010360051 0.023463912
000270 77 2c 48 be 49 28 ac 3d 5a 8c 37 bc df 3a 60 3d
       -0.19548212 0.08406121 -0.011202896 0.054743644
000280 ef fb 7d be 93 b8 a9 bc 1d 31 06 be d8 1f d6 bd
       -0.24803136 -0.020717895 -0.13104673 -0.104552925
000290 31 2c 27 bd 03 f3 d4 bd d7 d2 d1 3d e7 15 98 3c
       -0.04081363 -0.10397913 0.10245293 0.018565131
0002a0 41 05 84 3d 11 5d e9 bc 23 86 bd bd 24 01 69 bd
       0.064463146 -0.02848676 -0.092541 -0.056885853
0002b0 10 2a ba 3d 6b 53 6c 3d 83 1c 0b 3c 60 bc 14 bc
       0.09090054 0.05769674 0.008490684 -0.009078115
0002c0 b3 d3 49 be b6 c9 47 be 7b 37 69 be 06 b4 07 bd
       -0.19709663 -0.1951054 -0.2277507 -0.033130668
0002d0 ab 72 7b bd d2 82 a8 3d ed 5c 89 3b b0 80 f6 3b
       -0.061388653 0.08228077 0.004191986 0.007522665
0002e0 1a 65 76 3d 6d fe ee bd bb 39 e3 bd 2c bb 16 3b
       0.06015501 -0.116696216 -0.110949956 0.0022999747
0002f0 c4 20 88 bd 94 d5 04 3d a2 4d 25 3c 0a 36 13 be
       -0.066468745 0.032430246 0.01008931 -0.14376083
000300 13 f2 eb 3d 37 9e 9e 3d 97 f6 c3 3d 13 fc dc bc
       0.11520781 0.07745021 0.09568518 -0.026975667
000310 aa 9b d8 bd a7 8d 88 3d 95 9a 20 be ff 4d 82 bd
       -0.105765656 0.06667643 -0.15683968 -0.06362533
000320 c7 06 d0 bc 98 48 ad bd 85 6f a2 bd 77 a8 f9 3c
       -0.025393857 -0.08461112 -0.07931427 0.030475838
000330 05 12 af bd d1 78 8d bd 8f 26 3c bd 27 b3 b8 3d
       -0.08548359 -0.069078095 -0.04593521 0.090185456
000340 dc 18 98 3d c8 fa d3 bd eb 5a fa bd f9 5c 4c bd
       0.074266165 -0.10350567 -0.122243725 -0.049893353
000350 08 d5 d5 3c 62 eb 6a 3e 0c 36 3e 3c e3 05 4a bd
       0.026102558 0.22941354 0.0116095655 -0.04932202
000360 3e d5 41 be 72 0b e8 3d a9 9a c3 3c 6a 74 ab 3c
       -0.18929002 0.11330308 0.023877459 0.020929534
000370 ce c7 01 bd a9 99 ba bd d4 f8 b3 bd fd 8f 23 be
       -0.03168469 -0.091113396 -0.087876946 -0.15972896
000380 57 59 51 be 7f 49 39 bd b4 b8 d6 bd 66 87 0a 3e
       -0.20444237 -0.045236107 -0.10484448 0.13528213
000390 22 78 5b 3e e2 28 ba bd 99 97 04 bd e9 29 7b be
       0.21432546 -0.09089829 -0.032371137 -0.24527706
0003a0 d4 7b 04 ba 90 e6 ec 3c 97 bd 4a 3d 4a 62 8b bd
       -0.0005053852 0.028918535 0.049497213 -0.068058565
0003b0 f4 11 0d bd f4 e0 0f 3c 8d f2 10 3d 50 7d 8e bc
       -0.03444095 0.00878166 0.035387564 -0.017393738
0003c0 24 fa 1b be 4f 10 fc bd 57 51 de bd ff c3 64 bd
       -0.1523214 -0.12307798 -0.10855358 -0.05585098
0003d0 2c 27 ca bb 1f 08 0b be 02 06 8c bd df a7 6a bd
       -0.0061692204 -0.13577317 -0.068370834 -0.057289
0003e0 d6 51 ef bd a3 60 81 be 77 bc 8b bd b4 7f 4f 3c
       -0.11685531 -0.2526904 -0.06823056 0.012664724
0003f0 d7 5a 6d bd 97 1d 1d be 54 2c 1f bc 7e 4d af bd
       -0.05794796 -0.15343319 -0.0097151585 -0.08559702

bias f4 [30]
000000 6d 76 3a 3d a0 e5 0f bd cc 0b 8e be f8 95 85 bc
       0.045523096 -0.035131097 -0.27743375 -0.016306862
000010 a4 56 57 be ab 08 be 3c dc 5a b0 bd b0 63 03 3c
       -0.21029145 0.023197493 -0.0861108 0.008019373
000020 2d 2a 3a 3d e4 0e 86 bd ce 27 5b be 5e bc 8b 3d
       0.04545038 -0.06545809 -0.21401903 0.068230376
000030 95 2c 96 3d 23 69 f7 3c 40 df bd 3d 6a 7b a2 3d
       0.07332722 0.0302015 0.09271097 0.079336956
000040 00 66 98 3b 68 10 30 3d 38 a8 45 3e f0 1a 78 3c
       0.004650831 0.042984396 0.19302452 0.015143141
000050 1c a2 47 be 7c 8a 99 3d 42 ce ae bd 08 28 19 be
       -0.19495434 0.07497117 -0.08535434 -0.14956677
000060 a1 37 0a bd d2 57 ad bd 80 57 f6 3a 4f b1 39 be
       -0.033744458 -0.08464016 0.0018794388 -0.18134044
000070 f0 a9 8c bd 52 60 d2 3d
       -0.068683505 0.10272278

weight f4 [20, 30]
000000 11 75 77 3e b8 52 2f 3e c8 31 df 3d 6b d5 fb 3c
       0.24165751 0.17121398 0.10898167 0.030741414
000010 c6 74 a1 bd 88 d9 2c 3a e1 4c 45 bd 1b b7 9e 3d
       -0.07883601 0.0006593694 -0.04816902 0.07749768
000020 bf c8 bf 3c 1d c7 db 3c ac c4 ac 3d 63 a4 f3 3d
       0.023411153 0.026828343 0.0843595 0.11896589
000030 98 8a 99 bd 14 9e 8c 3d c8 16 09 bd 30 4c 9b bc
       -0.07497138 0.068660885 -0.03346899 -0.018957227
000040 53 37 96 3c 32 11 c6 3d 8d b9 fd 3d 8e fb 02 bd
       0.018336928 0.096712485 0.12388907 -0.031978182
000050 76 c8 58 3d fc 21 99 3c 37 8f 4c bc a7 74 6e 3d
       0.05292555 0.018692963 -0.012485317 0.058216717
000060 d5 46 42 bd 0e d0 0f 3e 01 cf 8a bd 3d f0 f5 3b
       -0.047430832 0.1404421 -0.06777764 0.0075054453
000070 fb 25 08 be 3f b8 02 3e 55 7b 4a be 7b 8a 7a bc
       -0.13295738 0.12765597 -0.1977361 -0.015291805
000080 55 eb 01 3e 08 9b fa 3c 1b 89 37 3d 16 04 15 3e
       0.12687428 0.030591503 0.04480849 0.1455234
000090 1f 40 0b 3e d0 2b 98 be 98 87 52 3e e7 6f 7e 3d
       0.13598679 -0.29720926 0.20559537 0.062118437
0000a0 8d d1 b8 3d 5e 5c 09 3e 47 5e ab 3d ef 0a ab 3d
       0.09024344 0.13414142 0.08367591 0.08351695
0000b0 68 aa f0 ba ce f4 19 bd a9 f5 90 bd 43 62 a7 be
       -0.0018361332 -0.03758698 -0.07078106 -0.32692155
0000c0 d7 2f 30 be 35 a6 2c bc 44 15 88 bd e8 24 18 be
       -0.1720575 -0.010537674 -0.06644681 -0.14857829
0000d0 4e f1 0b bd eb 3e f9 3a 22 b1 be bd 4e 7d 8d bd
       -0.034165673 0.0019015943 -0.09311129 -0.069086656
0000e0 7b 76 e6 bc f1 a1 8d 3c 0a eb b0 3d 65 62 b2 3d
       -0.028132668 0.017289134 0.0863858 0.087101735
0000f0 00 98 13 bc 6a b8 9c bd 34 b6 9a 3d 25 b0 54 bd
       -0.009008408 -0.07652362 0.07554284 -0.051925797
000100 85 ea 1a 3e dd ec 70 3c d1 e0 9b 3e 65 ec 4a be
       0.15128525 0.01470491 0.3044496 -0.1981674
000110 12 9c d7 bd 67 0d 2b 3d 7b 10 87 bd 99 d3 d6 3d
       -0.10527815 0.04176083 -0.0659494 0.10489578
000120 fa 98 a9 bc 32 2f 4d 3e d3 61 b4 bd d5 51 3f bc
       -0.020702828 0.20037535 -0.08807721 -0.011677225
000130 30 c9 df bc 17 62 a7 3b 01 20 0d be f8 ce 96 bc
       -0.027317613 0.005108129 -0.1378174 -0.018409237
000140 7c 47 ac 3d 94 0c 02 bd 7b 1d d3 3d 1f 62 30 be
       0.08412072 -0.031750277 0.10308357 -0.1722493
000150 6c 48 87 bd d1 55 bf bc eb dd ce 3b be 3e 20 3c
       -0.0660561 -0.02335635 0.006313076 0.009780584
000160 ca 1e cb 3d 02 de 66 3d 6e 2f f8 3d f5 8b f3 3d
       0.09917982 0.056364067 0.121184215 0.11891929
000170 7c ec ba bd 7d 92 6e 3c 73 19 42 be 3c c1 c5 bd
       -0.09127137 0.014561293 -0.1895502 -0.09655997
000180 4f 85 6e 3d 84 fd 29 3e 2f 66 10 bd a8 c4 10 3e
       0.0582326 0.16600615 -0.0352537 0.14137518
000190 ca 19 b7 3d 0d b8 22 be be a5 26 3d d6 5f 1d be
       0.08940466 -0.15890522 0.040685408 -0.1536859
0001a0 dd 5b 2e be 04 b5 09 3d b8 ac 12 3e e7 49 d2 3d
       -0.1702723 0.033619896 0.143237 0.10268002
0001b0 3b a6 6a bc c5 bb 1b be 47 39 dd bd dd cf 6d 3e
       -0.014321859 -0.15208347 -0.108019404 0.23223825
0001c0 dc 9e b0 bd 87 6c 83 3d b0 99 68 3b 52 dd 10 bd
       -0.0862405 0.06417184 0.0035491996 -0.035367317
0001d0 2b c6 c4 bc 6a 93 77 3d 98 bc 15 3e 75 a9 88 bd
       -0.024020275 0.06044332 0.14622724 -0.06672946
0001e0 6c cd 66 bd e3 a6 41 3d 4a a6 0c bd 1f e6 9c bc
       -0.05634825 0.047278296 -0.034338273 -0.019152699
0001f0 c7 99 24 3d 04 81 39 be 01 d4 2d bc 2c e7 b6 bd
       0.040185716 -0.18115622 -0.010609628 -0.08930811
000200 91 d6 1a bd f5 69 05 be 17 30 eb 3d b4 96 8a bd
       -0.037802283 -0.130287 0.11483782 -0.067670256
000210 ee 3d d4 bd a1 a6 1b 3d ea f0 7b bd 17 1c 83 3d
       -0.10363375 0.038000707 -0.06150905 0.06401842
000220 8f 7e 04 3a 6b 38 b0 bd 20 e0 c2 bd ab 14 a8 3d
       0.0005054259 -0.08604511 -0.09515405 0.08207067
000230 76 2b d8 3b f3 85 ba 3c 92 ee 4b bd e2 5c f3 3d
       0.006596978 0.02276895 -0.049788065 0.1188295
000240 59 2f 19 bd 3c f0 c4 3d 1e ea 18 bd ac 7b 9b 3b
       -0.03739867 0.096161336 -0.037332647 0.0047449674
000250 31 ee 83 3c 42 c7 a6 3d db 33 1a bd b2 2b f3 3a
       0.01610479 0.08143474 -0.03764711 0.0018552451
000260 8f 73 9c bd df dd 4f 3d c0 99 6e bd 41 aa 88 3b
       -0.076392286 0.050748702 -0.058252096 0.0041706865
000270 c3 d8 a4 bd 2b f6 e3 bd 37 16 ce 3d a3 2d 6c bd
       -0.080491565 -0.11130937 0.10062831 -0.05766071
000280 f3 89 c3 bb 6f 03 5c bd b2 14 bf 3d 40 1d cf 3d
       -0.0059673726 -0.053714212 0.09330119 0.10113001
000290 c6 da 50 bd 35 ab df bd 5b c2 0a be 35 28 9a 3d
       -0.05098989 -0.10921327 -0.13550703 0.075272
0002a0 fb b7 a0 3c 59 43 32 3e ee 78 cd bd 27 a5 f0 3c
       0.019618979 0.17408504 -0.10032831 0.029375626
0002b0 3a fa 20 3e 55 aa 41 3c 33 96 5a bd a9 b2 53 be
       0.15720454 0.0118203955 -0.053365897 -0.20673622
0002c0 aa f1 88 bd d2 f1 6b 3c 07 ea 37 3d f5 94 b0 3c
       -0.06686719 0.014400916 0.04490092 0.021555403
0002d0 ca 80 4f 3c 5f 32 45 be 25 c1 11 be 81 9c 45 3b
       0.012664983 -0.19257496 -0.14233835 0.0030153098
0002e0 4c 8b aa bd 8a e7 9c 3d 47 18 e8 3d 60 77 9e b9
       -0.0832735 0.0766135 0.113327555 -0.0003022505
0002f0 4e 36 1f 3e 4b b0 5b 3e 72 7c 50 3c 57 8e fd bd
       0.1554806 0.21453969 0.012724983 -0.12380665
000300 00 e4 ed 3c 3a cf de 39 c5 f0 b4 bd f4 18 ab bd
       0.029039383 0.00042497535 -0.08834986 -0.08354369
000310 8f 63 5a 3d 37 81 ad 3d 80 c7 00 3c bb 61 8b bc
       0.053317603 0.084719114 0.0078600645 -0.017014375
000320 f8 20 74 3d 1d 55 a9 bd 18 c6 a5 3d 1b 4e c9 3d
       0.059601754 -0.08268187 0.08094424 0.098293506
000330 da 13 db bd bf da db bd f5 96 9a 3c c5 4b 5d bd
       -0.10697146 -0.10735082 0.01887081 -0.054027338
000340 60 9a bf 3d 77 96 45 3d 5d 81 d1 3e d2 fb d1 bc
       0.093556166 0.048239198 0.4091901 -0.025632773
000350 90 dc 75 bd ef 76 b4 bc da f2 de 3d f2 3f 76 bb
       -0.060024798 -0.022029368 0.10886164 -0.0037574735
000360 e1 e1 21 3e 85 ee 65 bd bb bf 53 bd 2b a6 1c 3d
       0.15808822 -0.056135673 -0.05169652 0.038244408
000370 fb 2c 8d 3c b6 ab a7 bc 4f b5 14 3c 3b 79 00 be
       0.017233362 -0.02046762 0.00907643 -0.12546246
000380 b8 32 55 3d 20 d8 54 3c 17 9f 8a 3d fe a7 32 bd
       0.052050322 0.012990981 0.06768625 -0.04361724
000390 83 6a e9 3d 39 6e 3a 3d 6d 34 08 bd 83 66 05 3d
       0.113972686 0.045515273 -0.033253122 0.032568466
0003a0 0a ba d6 3d 21 d7 12 3e 77 0b ab 3d e7 e4 a2 3c
       0.10484703 0.14339878 0.08351796 0.01988454
0003b0 a5 fe 8e bd db 8b 66 bd 49 cd 0d 3e 1d 44 10 3d
       -0.06982163 -0.05628572 0.13847841 0.035221208
0003c0 86 a5 09 3e 5b 2e 15 bd 01 bc 12 3d 8b 9c 1c be
       0.13442048 -0.03642116 0.035823826 -0.15294091
0003d0 9e eb 04 3b 86 b1 a7 bd 9b 1a d0 3c 73 95 c8 bc
       0.002028204 -0.08188157 0.025403311 -0.024485325
0003e0 8d c9 5b be 83 78 f6 3c a1 e2 0e bc bb c6 3e bc
       -0.21463604 0.030086761 -0.008721025 -0.011644061
0003f0 d7 26 4c bc 74 f5 bb bd b8 a8 d2 3d 55 b9 f6 3b
       -0.012460432 -0.09177676 0.10286087 0.0075294175

bias f4 [20]
000000 62 75 42 be 2e 67 32 be 45 39 38 be ba f8 20 be
       -0.1899009 -0.17422172 -0.17990597 -0.15719882
000010 91 ea 2d be 17 b7 39 be 63 4c 05 be fd 0b 34 be
       -0.16984011 -0.1813625 -0.1301742 -0.17582698
000020 cf f6 0e be d1 5c 10 be a2 24 3b be 1e 2f 0e be
       -0.13961338 -0.14097907 -0.18275693 -0.13885161
000030 d8 f8 1c be 18 21 ce bd 4b f6 ae bd 77 97 c8 bd
       -0.15329301 -0.10064906 -0.085430704 -0.097945146
000040 dc 61 0b be d9 f5 a9 bd b4 d8 f3 bd 25 d5 30 be
       -0.13611549 -0.08298845 -0.11906567 -0.17268808
